…
--- (Split) Data Shapes ---
Shape of X training: (3800, 128, 128, 3)
Shape of Y training: (3800,)
Shape of X validation: (475, 128, 128, 3)
Shape of Y validation: (475,)
Shape of X testing: (475, 128, 128, 3)
Shape of Y testing: (475,)

--- (Split) Data Types ---
Data type of X training: uint8
Data type of Y training: object

--- 🖥️ Creating CNN Base Model ---
Model: "sequential_1"
_________________________________________________________________
 Layer (type)                Output Shape              Param #
=================================================================
 conv2d (Conv2D)             (None, 128, 128, 32)      896

 max_pooling2d (MaxPooling2  (None, 64, 64, 32)        0
 D)

 conv2d_1 (Conv2D)           (None, 64, 64, 64)        18496

 max_pooling2d_1 (MaxPoolin  (None, 32, 32, 64)        0
 g2D)

 conv2d_2 (Conv2D)           (None, 32, 32, 128)       73856

 max_pooling2d_2 (MaxPoolin  (None, 16, 16, 128)       0
 g2D)

 conv2d_3 (Conv2D)           (None, 16, 16, 32)        36896

 batch_normalization (Batch  (None, 16, 16, 32)        128
 Normalization)

 activation (Activation)     (None, 16, 16, 32)        0

 flatten (Flatten)           (None, 8192)              0

 dense (Dense)               (None, 128)               1048704

 dropout (Dropout)           (None, 128)               0

 dense_1 (Dense)             (None, 12)                1548

=================================================================
Total params: 1180524 (4.50 MB)
Trainable params: 1180460 (4.50 MB)
Non-trainable params: 64 (256.00 Byte)
_________________________________________________________________
--- CNN Base Model Fitting Training Model ---
Epoch 1/30
60/60 - 4s - loss: 3.3720 - accuracy: 0.1471 - val_loss: 2.4073 - val_accuracy: 0.2863 - lr: 0.0010 - 4s/epoch - 60ms/step
…
Small-flowered Cranesbill     0.8511    0.8000    0.8247        50
               Sugar beet     0.4746    0.7368    0.5773        38

                 accuracy                         0.5958       475
                macro avg     0.6942    0.6304    0.5711       475
             weighted avg     0.7408    0.5958    0.5671       475


--- 🖥️ Creating Data Augmented CNN Model ---
Model: "sequential_1"
_________________________________________________________________
 Layer (type)                Output Shape              Param #
=================================================================
 conv2d (Conv2D)             (None, 128, 128, 32)      896

 batch_normalization (Batch  (None, 128, 128, 32)      128
 Normalization)

 activation (Activation)     (None, 128, 128, 32)      0

 max_pooling2d (MaxPooling2  (None, 64, 64, 32)        0
 D)

 conv2d_1 (Conv2D)           (None, 64, 64, 64)        18496

 batch_normalization_1 (Bat  (None, 64, 64, 64)        256
 chNormalization)

 activation_1 (Activation)   (None, 64, 64, 64)        0

 max_pooling2d_1 (MaxPoolin  (None, 32, 32, 64)        0
 g2D)

 conv2d_2 (Conv2D)           (None, 32, 32, 128)       73856

 batch_normalization_2 (Bat  (None, 32, 32, 128)       512
 chNormalization)

 activation_2 (Activation)   (None, 32, 32, 128)       0

 max_pooling2d_2 (MaxPoolin  (None, 16, 16, 128)       0
 g2D)

 global_average_pooling2d (  (None, 128)               0
 GlobalAveragePooling2D)

 dense (Dense)               (None, 256)               33024

 batch_normalization_3 (Bat  (None, 256)               1024
 chNormalization)

 activation_3 (Activation)   (None, 256)               0

 dropout (Dropout)           (None, 256)               0

 dense_1 (Dense)             (None, 12)                3084

=================================================================
Total params: 131276 (512.80 KB)
Trainable params: 130316 (509.05 KB)
Non-trainable params: 960 (3.75 KB)
_________________________________________________________________
--- Data Augmented CNN Model Fitting Training Model ---
Epoch 1/36
119/119 [==============================] - 6s 44ms/step - loss: 2.3780 - accuracy: 0.2274 - val_loss: 2.5863 - val_accuracy: 0.0484 - lr: 1.0000e-04
…
 -> 🧯 Freezing: block2_conv1
 -> 🧯 Freezing: block2_conv2
 -> 🧯 Freezing: block2_pool
 -> 🧯 Freezing: block3_conv1
 -> 🧯 Freezing: block3_conv2
 -> 🧯 Freezing: block3_conv3
 -> 🧯 Freezing: block3_pool
 -> 🧯 Freezing: block4_conv1
 -> 🧯 Freezing: block4_conv2
 -> 🧯 Freezing: block4_conv3
 -> 🧯 Freezing: block4_pool
Model: "vgg16_classifier"
_________________________________________________________________
 Layer (type)                Output Shape              Param #
=================================================================
 input_1 (InputLayer)        [(None, 128, 128, 3)]     0

 block1_conv1 (Conv2D)       (None, 128, 128, 64)      1792

 block1_conv2 (Conv2D)       (None, 128, 128, 64)      36928

 block1_pool (MaxPooling2D)  (None, 64, 64, 64)        0

 block2_conv1 (Conv2D)       (None, 64, 64, 128)       73856

 block2_conv2 (Conv2D)       (None, 64, 64, 128)       147584

 block2_pool (MaxPooling2D)  (None, 32, 32, 128)       0

 block3_conv1 (Conv2D)       (None, 32, 32, 256)       295168

 block3_conv2 (Conv2D)       (None, 32, 32, 256)       590080

 block3_conv3 (Conv2D)       (None, 32, 32, 256)       590080

 block3_pool (MaxPooling2D)  (None, 16, 16, 256)       0

 block4_conv1 (Conv2D)       (None, 16, 16, 512)       1180160

 block4_conv2 (Conv2D)       (None, 16, 16, 512)       2359808

 block4_conv3 (Conv2D)       (None, 16, 16, 512)       2359808

 block4_pool (MaxPooling2D)  (None, 8, 8, 512)         0

 block5_conv1 (Conv2D)       (None, 8, 8, 512)         2359808

 block5_conv2 (Conv2D)       (None, 8, 8, 512)         2359808

 block5_conv3 (Conv2D)       (None, 8, 8, 512)         2359808

 block5_pool (MaxPooling2D)  (None, 4, 4, 512)         0

 global_average_pooling2d (  (None, 512)               0
 GlobalAveragePooling2D)

 species_projection (Dense)  (None, 12)                6156

=================================================================
Total params: 14720844 (56.16 MB)
Trainable params: 7085580 (27.03 MB)
Non-trainable params: 7635264 (29.13 MB)
_________________________________________________________________

--- 🖥️ Creating Transfer Learning Model ---
Model: "vgg16_refined"
__________________________________________________________________________________________________
 Layer (type)                Output Shape                 Param #   Connected to
==================================================================================================
 input_1 (InputLayer)        [(None, 128, 128, 3)]        0         []

 vgg16_preprocess_robust (L  (None, 128, 128, 3)          0         ['input_1[0][0]']
 ambda)

 vgg16 (Functional)          (None, 4, 4, 512)            1471468   ['vgg16_preprocess_robust[0][0
                                                          8         ]']

 global_average_pooling2d (  (None, 512)                  0         ['vgg16[0][0]']
 GlobalAveragePooling2D)

 global_max_pooling2d (Glob  (None, 512)                  0         ['vgg16[0][0]']
 alMaxPooling2D)

 concatenate (Concatenate)   (None, 1024)                 0         ['global_average_pooling2d[0][
                                                                    0]',
                                                                     'global_max_pooling2d[0][0]']

 batch_normalization (Batch  (None, 1024)                 4096      ['concatenate[0][0]']
 Normalization)

 dense (Dense)               (None, 512)                  524800    ['batch_normalization[0][0]']

 batch_normalization_1 (Bat  (None, 512)                  2048      ['dense[0][0]']
 chNormalization)

 dropout (Dropout)           (None, 512)                  0         ['batch_normalization_1[0][0]'
                                                                    ]

 prediction_layer (Dense)    (None, 12)                   6156      ['dropout[0][0]']

==================================================================================================
Total params: 15251788 (58.18 MB)
Trainable params: 7613452 (29.04 MB)
Non-trainable params: 7638336 (29.14 MB)
__________________________________________________________________________________________________

--- Transfer Learning Model Fitting Training Model ---

--- 📢 Phase #1: Training Classification Head (Base Locked) 📢 ---
…
